…
        "model1.add(Dense(100, activation='relu'))\n",
        "model1.add(Dense(5, activation='softmax'))\n",
        "\n",
        "model1.summary()"
      ],
      "execution_count": null,
      "outputs": [
        {
          "output_type": "stream",
          "text": [
            "Model: \"sequential\"\n",
            "_________________________________________________________________\n",
            "Layer (type)                 Output Shape              Param #   \n",
            "=================================================================\n",
            "conv2d (Conv2D)              (None, 30, 30, 32)        896       \n",
            "_________________________________________________________________\n",
            "max_pooling2d (MaxPooling2D) (None, 15, 15, 32)        0         \n",
            "_________________________________________________________________\n",
            "conv2d_1 (Conv2D)            (None, 13, 13, 64)        18496     \n",
            "_________________________________________________________________\n",
            "max_pooling2d_1 (MaxPooling2 (None, 6, 6, 64)          0         \n",
            "_________________________________________________________________\n",
            "conv2d_2 (Conv2D)            (None, 4, 4, 64)          36928     \n",
            "_________________________________________________________________\n",
            "max_pooling2d_2 (MaxPooling2 (None, 2, 2, 64)          0         \n",
            "_________________________________________________________________\n",
            "flatten (Flatten)            (None, 256)               0         \n",
            "_________________________________________________________________\n",
            "dense (Dense)                (None, 100)               25700     \n",
            "_________________________________________________________________\n",
            "dense_1 (Dense)              (None, 5)                 505       \n",
            "=================================================================\n",
            "Total params: 82,525\n",
            "Trainable params: 82,525\n",
            "Non-trainable params: 0\n",
            "_________________________________________________________________\n"
          ],
          "name": "stdout"
        }
      ]
    },
    {
      "cell_type": "code",
      "metadata": {
…
